conv_autoencoder_synthetic.pth (torch_old, 26032 bytes, 10 tensors)

encoder.0.weight f4 [16, 3, 3, 3]
00000000: 30c8 cfb1 a164 cdb1 cb5d c4b1 f09d 0bb4
00000010: 1851 0bb4 0b39 09b4 4d21 f2b2 b381 ebb2
00000020: eeb7 dcb2 a521 fab4 8ade fab4 837a f4b4
00000030: 27aa d4b5 6a69 d6b5 e80f d1b5 42f1 f7b4
00000040: cf08 f8b4 5a1d f2b4 11ac 72b6 2485 74b6
00000050: cfa8 74b6 cb69 13b6 cadf 13b6 ae07 14b6
00000060: 8ea3 0cb6 e968 0cb6 f21d 0db6 22d2 3a81
00000070: 3e94 4181 7293 0b81 603d 8881 c048 6281
00000080: 70d1 8881 3861 3581 fe6f 5181 38bd 2e81
00000090: 033f b980 3c37 ac80 a510 9580 17a3 b080
000000a0: 5a36 ae80 89b0 d280 e234 3c80 605e 4980
000000b0: cbaa 6b80 1596 9f80 a369 a680 0893 a580
000000c0: a926 ac80 9e64 9b80 583a a480 b1aa c680
000000d0: 3d74 c480 0627 b980 e1c4 ddbe 4433 e6be
000000e0: 5a73 e9be 2ad9 2e3e 88a3 333e 9dba 403e
000000f0: 7769 353d 106a 373d 92b8 a03c f655 db3c
00000100: 5d88 b13c d6d7 c53c ff70 a13c 4c78 803c
00000110: 63d2 be3c 837a f6bc 31bf 953c f156 3e3c
00000120: 20f3 b13d fb2e 9e3d efdc 123d b3c4 003d
00000130: 1676 693d 80a5 7b3d 3bba 143e 468a 8c3d
00000140: 3907 373e bec8 6281 5eb2 8c81 1251 8c81
00000150: f2c0 c200 02d4 bd00 0ad1 7c00 4640 e380
00000160: c4c7 cf80 0a21 0281 a48a 2600 330c 7a00
00000170: db92 1000 9ae5 1281 5634 dc80 4a9f ed80
00000180: 7d5e 8c80 020a 7000 d4d8 0000 010b 0181
00000190: da35 0781 80a0 0981 e59b 9b81 4d4b 9b81
000001a0: 9666 9181 c4a6 2181 ea58 3081 60f9 1481
000001b0: ca4f 993d 1605 c8bc 2dd4 d23c 1fc4 b2bb
000001c0: d172 6cbc c245 b9bc 2098 df3b 01a6 98bc
000001d0: b0e0 da3c 4d4e bbbb 366c b5bc d2d0 793c
000001e0: 3319 083c 8d2d 1a3a 304d 72bc ff08 053d
000001f0: c284 1ebd 687e a73c 6e8b afbe cc32 a8be
00000200: 2130 68be 35cd 77be 6e61 9abd aad4 e5bc
00000210: 2f6f 333e f86c a73d 70e7 f63b 4d87 8300
00000220: 6d9a 5900 4c99 b700 d8f9 1480 8667 1980
00000230: 768e 4280 781f 0e01 8900 a700 9026 5e00
00000240: 5dc5 f800 2416 0401 856b ea00 ec28 0f00
00000250: c915 1b00 2fdd 2580 111c 8001 4e57 9301
00000260: a8c8 7501 22eb 1100 5e27 0a80 7cfc 0080
00000270: 8ace 6200 5653 3e00 3989 5b00 2426 1580
00000280: 71b5 0500 dbe2 0480 cb64 813e 20a6 543e
00000290: 335e 733e 7c90 953e 7e7b 903e d348 953e
000002a0: 780d 803e 6d20 963e 4cc2 923e c873 d43c
000002b0: a854 07bd c8ab 5c3d 270e 10bd f70e 2d3c
000002c0: 8c12 8e3d e582 c9bc 3c3e ac3d 8676 2bbd
000002d0: 18c4 073e 594d b23d 5cd0 153e 4489 843d
000002e0: 7a41 6e3d 7c20 6e3d 1ae4 dbbe f7d2 c3be
000002f0: 33bb d0be 7e53 edbd 3a67 debd e026 e0bd
00000300: 981c 96be dac1 9bbe 381b 91be baf2 8b3e
00000310: 770d 7d3e f451 833e 0d57 8fbc 3f04 30bd
00000320: b58e eebc 1e8c c2bb 2b39 dbbc 0df0 8cbc
00000330: af8c bfbc ea8e 31bd 8d18 81bc d852 e63d
00000340: 209b d93d bc0b f03d 5846 403d a340 583d
00000350: aa39 703d 26c2 bb3d d763 ae3d c6aa c23d
00000360: 20e2 ecbc f49c 41bd 85de 81bd 8282 f8bb
00000370: ab0d 8cbd 1c97 81bd 9ff7 293c ba9a 1bbd
00000380: 96b9 12bc 2fa8 ca3e b290 c93e 25df d73e
00000390: 5a28 39be c3b5 2abe 0d19 08be 26f4 f43e
000003a0: dc33 f83e 712f 0e3f d3ac 3d3d e90d 01be
000003b0: 7d98 f43c 8700 0c3d da82 433d 5517 4bbd
000003c0: cf2d 6ebd b1ad da3c 4e2a 95bd 5982 8bbd
000003d0: 1274 4fbd 747e f4bc ffde b03e eb6e a23e
000003e0: 9fa7 a93e ce6e cfbe 5b55 dbbe 6e65 cebe
000003f0: b6d6 a03c 22d4 2d3d f838 613d d769 233a
-6.0472516e-09 -5.9777254e-09 -5.715014e-09 -1.3002841e-07 -1.2974886e-07 -1.2779871e-07 -2.8187651e-08 -2.7416581e-08
-2.5695012e-08 -4.6590608e-07 -4.6728047e-07 -4.553768e-07 -1.5844752e-06 -1.5974922e-06 -1.5576343e-06 -4.6182873e-07
-4.620001e-07 -4.509737e-07 -3.6160966e-06 -3.6436331e-06 -3.6457093e-06 -2.1966287e-06 -2.203497e-06 -2.2058189e-06
-2.0956827e-06 -2.0922691e-06 -2.1028068e-06 -3.4313567e-38 -3.555486e-38 -2.5636055e-38 -5.004658e-38 -4.156184e-38
-5.025904e-38 -3.33142e-38 -3.8467588e-38 -3.209451e-38 -1.7012171e-38 -1.581552e-38 -1.368946e-38 -1.6221553e-38
-1.5998874e-38 -1.9348783e-38 -5.5291e-39 -6.737847e-39 -9.887667e-39 -1.4655683e-38 -1.5282588e-38 -1.5205602e-38
-1.5809574e-38 -1.4270597e-38 -1.5081951e-38 -1.8244661e-38 -1.8041456e-38 -1.7003566e-38 -0.4331427 -0.44960988
-0.4559582 0.17075029 0.17542851 0.18821187 0.044290032 0.044778883 0.01961926 0.026774388
0.021671468 0.02415077 0.019707201 0.015682362 0.02329368 -0.030087715 0.018279644 0.011617408
0.086889505 0.077238046 0.03585523 0.031437587 0.05699738 0.06143713 0.14524166 0.06862311
0.17873849 -4.165367e-38 -5.168382e-38 -5.154421e-38 1.7885302e-38 1.7432963e-38 1.146259e-38 -2.0869715e-38
-1.908161e-38 -2.3900933e-38 3.539484e-39 1.1208307e-38 1.52205e-39 -2.6980696e-38 -2.0222584e-38 -2.1822155e-38
-1.2890865e-38 1.0289166e-38 7.7783e-41 -2.3701453e-38 -2.483422e-38 -2.527808e-38 -5.7161705e-38 -5.704606e-38
-5.341179e-38 -2.9690678e-38 -3.2389887e-38 -2.7362225e-38 0.07485922 -0.024416488 0.025735939 -0.0054555084
-0.014431671 -0.02261627 0.0068235546 -0.018633844 0.026718467 -0.0057161213 -0.022146326 0.015247541
0.008306789 0.00058814214 -0.014788911 0.032479282 -0.038700826 0.020446017 -0.34286064 -0.32851255
-0.2267461 -0.24199374 -0.075381145 -0.028055508 0.17522882 0.08175081 0.0075349137 1.2078987e-38
8.228757e-39 1.6860888e-38 -1.926337e-39 -2.333025e-39 -6.112248e-39 2.610386e-38 1.533672e-38 8.64637e-39
2.2846004e-38 2.4260456e-38 2.1528077e-38 1.392212e-39 2.487373e-39 -3.477259e-39 4.706005e-38 5.412455e-38
4.5143357e-38 1.645553e-39 -9.32477e-40 -9.0574e-41 9.073971e-39 5.723696e-39 8.406256e-39 -1.942228e-39
5.24266e-40 -4.48722e-40 0.2527221 0.20766497 0.23766403 0.29211795 0.28219217 0.29157123
0.25010276 0.29321614 0.28663862 0.025934115 -0.03303972 0.05387476 -0.035169747 0.01056265
0.06937131 -0.024598548 0.08410308 -0.04186108 0.13258398 0.08706159 0.14630264 0.06471494
0.058167912 0.05813645 -0.42947465 -0.3824689 -0.40767822 -0.115881905 -0.10859533 -0.10944915
-0.2931869 -0.30421335 -0.2834108 0.27333623 0.24712168 0.25648463 -0.017497564 -0.0429728
-0.029120782 -0.0059371134 -0.026760658 -0.017204309 -0.023382513 -0.043349184 -0.015758777 0.1124627
0.10625291 0.11720988 0.046942085 0.052796017 0.058648743 0.0916789 0.08515137 0.09505229
-0.028916419 -0.047268823 -0.0634127 -0.007583917 -0.068385445 -0.0632765 0.010373979 -0.037989356
-0.00895538 0.3958144 0.39368206 0.42162433 -0.18081799 -0.16670899 -0.13290806 0.4784252
0.48477066 0.5554114 0.046307396 -0.12602963 0.029857868 0.03418019 0.04773221 -0.049582798
-0.058149155 0.02669415 -0.072834596 -0.06811971 -0.050647803 -0.029845454 0.34545133 0.3172525
0.33135697 -0.40514225 -0.4283856 -0.4031176 0.019633632 0.042438634 0.05498597 0.0006233728

encoder.0.bias f4 [16]
00000000: d316 10b9 08d0 b480 95fc a03e eaf5 8f81
00000010: c2fe 903f 19b6 0c97 0780 293e 88cd 053f
00000020: 7f9f 68be 9b30 863d 17da 133e 6e66 5781
00000030: 3366 fa80 58c6 4abe a922 7d3e d1e0 93be
-0.00013741413 -1.6605017e-38 0.31442705 -5.2882773e-38 1.1327746 -4.546628e-25 0.16552745 0.5226674
-0.22717093 0.065522395 0.14438663 -3.9562753e-38 -2.2995536e-38 -0.19802225 0.24720253 -0.2888246

encoder.3.weight f4 [8, 16, 3, 3]
00000000: 0bd6 b2a4 de71 8aa4 1542 b1a2 6ab0 0da7
00000010: f484 cda6 8832 7ba5 98d7 11a7 d2cf d8a6
00000020: a6b9 7ca5 2c00 8700 d2d6 7700 405a 2401
00000030: 7438 4301 2afb 6401 c44e 2f01 e0c0 c800
00000040: eaec 3a01 0cf0 0d01 b07e c43a 1106 6c3c
00000050: 2d85 29bd b8e2 293d b2f8 b53c 7847 9a3c
00000060: 9761 46bc 17d7 45bd d112 92bd 0025 1901
00000070: c072 6100 9492 1d00 3a88 2d01 1027 2880
00000080: 22b6 6d01 093c 2201 48ef 8501 4639 7a01
00000090: d702 873d 8d26 1b3d 0868 acbc 5dc4 233c
000000a0: 5b5e 433b d92b 62bc a2c0 be3e a091 b53e
000000b0: 8922 a93e e608 978c f3d7 858c d372 b38b
000000c0: 4260 0b8c c8b5 998b 2723 058a 1d0a 5d8b
000000d0: 2c2a 008b f4c3 0089 d35d 3bbd f7aa 3abe
000000e0: 0cd5 75bc ee3b e2bd 4d1c 7fbe 618e ddbd
000000f0: de3e dbbe 8982 02bf 16aa a5be 594a e23d
00000100: d8b5 653d 24a3 c43d 72d9 e03d 61a7 a73c
00000110: 06e4 b53d fb96 1a3e 0085 963d 155b fb3d
00000120: 5e4e f43c 8131 9b3c 6cb7 973b b30f 41bd
00000130: 7160 c53b dd29 64bd 114f 3c3c f65d a33c
00000140: 8ae2 3cbd ca25 9a3c de48 cd3b d7d0 693b
00000150: eae8 17bd 49c0 01bd 4966 f6bc bf86 133c
00000160: 8542 82bc ceda d2bc fa5c 073e 7308 993d
00000170: 0e86 0d3e faa0 5bbe 11a3 4abe 1a12 20be
00000180: 0a8f 313e 20f6 0d3e 0543 c13d 4ab5 2201
00000190: 5098 6301 4032 0301 21f3 4880 cf99 8500
000001a0: 3e9f d000 8bf0 5400 b620 7300 8e88 2301
000001b0: 346d 2481 5fbf be80 8518 0081 2617 3581
000001c0: a06c 2e81 f73a 4c81 0294 2f81 985a 1f81
000001d0: 5ad8 4f81 3367 dc3b faec 9e3c f3b0 d1bc
000001e0: ad07 e1bc 3d6a fdbb 6f29 0abd 8075 78bc
000001f0: 60fd c6bc 988a 20bd b4b7 24bd 800c 72bc
00000200: 3e35 b7bd 5f5d 123e 976d 0f3e e029 913d
00000210: dc91 c03d 57f8 373d afcd bd3d 8364 c83c
00000220: 05a9 0c3c 0a8b 0b3c 7d2b 4f3c c94d 833d
00000230: 83cc d03c 65e2 983c df4d 553d ffdd 5bbc
00000240: 767a a40b 06ea de0b 72b2 3b8a 8052 ee8a
00000250: a0e5 c18b fa4f ba0b 3c05 390b c368 5b8b
00000260: a843 8d0b 8fe5 2b81 1e51 a481 5bf3 2381
00000270: ce50 9a00 f1b1 1881 b671 4b80 f821 d880
00000280: 29a3 2d81 bf58 1481 54db 25bd 566f 80bb
00000290: fe1e 86bd ff6e 883d fb92 8c3d 5e15 1a3d
000002a0: d209 76bd 51c1 bfbc 1ae7 b9bd dc06 a301
000002b0: 8cda 1d01 7298 4801 f0ac 1101 e888 9c80
000002c0: ba06 1981 9815 b000 7c4d b201 4f6b ba01
000002d0: 4b5d 6f3d 1dc0 9c3d 4b86 b2bc 7a3b 413e
000002e0: 2602 3a3e fc45 bd3d 5645 103e 3b59 1b3e
000002f0: 2c7e 353d d6cc 2681 f6e8 3081 03cc ee80
00000300: 7850 5681 e8a5 3a81 07cc 1381 a860 0881
00000310: a79f 1581 10e0 9081 ff4e ccbc 1b96 d2bc
00000320: 8edf 16bd 1984 84bc 1588 c0bc b107 19bc
00000330: 5db8 6abd 3739 07bd 8934 85bd a3c3 2c3d
00000340: 0d3d c33d b631 6abd 747c 023e 3049 323e
00000350: e4ec 923a 82f1 b43d e4d2 1f3e 706b 10bc
00000360: ea95 a1bd f5de a9bd 6ef1 67bd 350d 18be
00000370: 8eba 67be a9c7 94bd 77c9 46be 2a57 58be
00000380: 9bd6 b5bd 76f1 46bc 1363 dcbb 62dc 1a3d
00000390: 5ef8 1bbd 47d7 2fbd e855 443d e105 5abd
000003a0: bc31 31bd 65cb 773a 3666 44bd 530d 31bd
000003b0: ffe4 7dbc f6d9 cbbb 4c2f 13bd 30ab 103c
000003c0: aa9c 50bd 6fed 43bd e187 77bc 565d 3280
000003d0: 349f 5a81 1a0b 3681 38ea 6800 881f 4080
000003e0: 1e94 c180 a200 a780 765d 2480 0680 2200
000003f0: f6ff 3000 1ade 9581 7c37 4a80 8230 2b00
-7.75578e-17 -6.004086e-17 -4.8045913e-18 -1.9663315e-15 -1.426077e-15 -2.17879e-16 -2.0239666e-15 -1.5044341e-15
-2.1920416e-16 1.2397854e-38 1.1005487e-38 3.0186794e-38 3.5856347e-38 4.2057188e-38 3.2198935e-38 1.843629e-38
3.4332782e-38 2.6069835e-38 0.0014991369 0.014405743 -0.041386772 0.04147598 0.022213314 0.018832907
-0.012108228 -0.04830083 -0.07132495 2.8128208e-38 8.949208e-39 2.715812e-39 3.187282e-38 -3.687433e-39
4.36607e-38 2.9797774e-38 4.9199836e-38 4.595884e-38 0.065923385 0.03787856 -0.0210457 0.009995547
0.002981088 -0.013804399 0.37256342 0.35462666 0.3303416 -2.327059e-31 -2.0621864e-31 -6.912106e-32
-1.0737137e-31 -5.920697e-32 -6.4103285e-33 -4.257066e-32 -2.468363e-32 -1.5499576e-33 -0.045743775 -0.1822928
-0.015004408 -0.11046587 -0.2491314 -0.10818172 -0.428214 -0.5098043 -0.32356328 0.11049337
0.056081623 0.09601429 0.109789744 0.020465555 0.08881383 0.15096657 0.073495865 0.12273232
0.029822525 0.018944504 0.00463002 -0.047134113 0.0060234596 -0.055703986 0.01149346 0.019942265
-0.046114482 0.018816847 0.00626479 0.0035677457 -0.03708736 -0.031677518 -0.03007807 0.009004294
-0.01590086 -0.0257391 0.13219061 0.07472315 0.13820669 -0.21448126 -0.19788767 -0.15631905
0.17339721 0.1386342 0.09436611 2.988477e-38 4.1802594e-38 2.4096953e-38 -6.699374e-39 1.2269297e-38
1.9158909e-38 7.800472e-39 1.0572817e-38 3.0036345e-38 -3.0200392e-38 -1.7517395e-38 -2.352748e-38 -3.3261058e-38
-3.2036687e-38 -3.7511188e-38 -3.2248614e-38 -2.9268686e-38 -3.817512e-38 0.0067261695 0.019400109 -0.025597071
-0.02746948 -0.007733612 -0.03373092 -0.015164733 -0.02429074 -0.039194673 -0.040214255 -0.014773488
-0.08945702 0.14293431 0.14006649 0.07088065 0.094028205 0.04491457 0.09267747 0.02446199
0.008585219 0.008517036 0.012644646 0.06411321 0.025488144 0.01866264 0.052076217 -0.013419627
6.335476e-32 8.586341e-32 -9.037284e-33 -2.29496e-32 -7.46864e-32 7.176493e-32 3.5633642e-32 -4.225668e-32
5.441302e-32 -3.157244e-38 -6.0360483e-38 -3.011297e-38 1.4171654e-38 -2.8045658e-38 -6.928454e-39 -1.9848653e-38
-3.1892143e-38 -2.724698e-38 -0.04049237 -0.0039195223 -0.0654888 0.06661796 0.06863972 0.037618034
-0.06006796 -0.02340761 -0.09077282 5.9886586e-38 2.8993145e-38 3.6843573e-38 2.675637e-38 -1.437545e-38
-2.8106488e-38 1.6170794e-38 6.549806e-38 6.847959e-38 0.05843858 0.0765383 -0.021792552 0.18870345
0.18164882 0.09241864 0.1408895 0.15170757 0.04430978 -3.0636347e-38 -3.2493236e-38 -2.1930034e-38
-3.9363326e-38 -3.4281836e-38 -2.7146018e-38 -2.5048602e-38 -2.7481523e-38 -5.321876e-38 -0.024940012 -0.025706341
-0.036834292 -0.01617627 -0.023502389 -0.009340213 -0.05730473 -0.03301355 -0.06504161 0.04217876
0.09533129 -0.057176314 0.12742788 0.17410731 0.0011209515 0.088351265 0.15607792 -0.008814678
-0.07889922 -0.08294479 -0.05662673 -0.14848788 -0.22629759 -0.07264645 -0.1941279 -0.21127
-0.08878823 -0.01214253 -0.0067256778 0.03780783 -0.03807866 -0.042929914 0.04793349 -0.053228263
-0.04326032 0.00094526104 -0.04794904 -0.043225598 -0.015496491 -0.0062210513 -0.035933778 0.008829877
-0.050930656 -0.047833856 -0.01510808 -4.625257e-39 -4.01545e-38 -3.3436086e-38 9.634913e-39 -5.888783e-39
-1.7777385e-38 -1.5336755e-38 -3.339605e-39 3.168333e-39 4.499925e-39 -5.5052656e-38 -6.815731e-39 3.966328e-39

encoder.3.bias f4 [8]
00000000: 8864 0e3f 60f6 2b3f a03e d33e de56 983e
00000010: 20e2 ce3e 6798 04be ebb0 1f3f 642c a43e
0.5562215 0.67172813 0.41258717 0.29753774 0.40406895 -0.12948762 0.6237933 0.32065117

decoder.0.weight f4 [8, 16, 3, 3]
00000000: 4620 6cbe 194b f9bc 68ac 37be a8e3 24bd
00000010: bbb3 d63d 371e 123e efca cb3e 6731 473e
00000020: a2be 503e 8e9b 763d 3e15 003d f754 b13d
00000030: e8fa 643d e619 0fbd a98e 1cbd 0598 c33d
00000040: 9e98 96ba 6c89 383c 4be6 eabd 1159 e7bb
00000050: d358 d4bc 31d7 17be 09b1 5e3d 3bda 14be
00000060: 1655 1cbd 1567 7a3c 3d77 f0bc 3a2d 31be
00000070: 52d5 67bd bd03 7cbd 08ed 80bd 95ec 97bd
00000080: 5fee 75bd e21d f4bd c405 45be 0ad5 18be
00000090: 88c6 063b 7f35 48bc 88ed 1a3e 633e 64bd
000000a0: 196f f2bb f580 073e cd56 1bbe 911a 023c
000000b0: afaf 0f3d c1d2 0c3d 0fa2 90bc 36d8 e93d
000000c0: 3846 eb3c 7c99 163e e1f5 e23d 6403 96bd
000000d0: c0a6 ae3c 531c 8b3c 4e84 493d 7246 59bc
000000e0: 57ab 753c 6e92 143d 5ed4 9abc ae29 49bc
000000f0: 170c 213d f9d4 7b3c 8814 4b3d 79bb 9ebd
00000100: 905e 87be cfa7 32be 29b5 64be 2202 3cbd
00000110: 956f 02be d44b 7cbd 9ed2 afbe a97e 45be
00000120: e973 733d 3095 09bd 381c f93c 9a10 d33d
00000130: 6e0a 853c 03d4 98bd ef42 e6bc 33f5 3d3d
00000140: cd2b 11bd 153a b93c 6312 dfbd 863f 943c
00000150: 7c94 57bd 58e6 eb3d 3751 073e 5893 2cbd
00000160: 16cb 753d b25f bb3b 5c04 bfbd 3645 19be
00000170: 5d0f 02be c182 943b 1741 a43d ba65 433c
00000180: 0fbe a43d 616f 143e 7f55 383d f78c 0ebe
00000190: bae3 06be d72f 2abd a623 6e3e 82db bb81
000001a0: c23d 03be 17d6 a33c 9fc2 8c3e f027 b83e
000001b0: c7bc e1bd 9634 e53d 220a 94bd e034 0e3d
000001c0: e1fa dcbd f5fa 4bba ec9e 15be 53d2 90bd
000001d0: 08d8 eabd 35ce 1abe 0b5f 093e 5f48 15be
000001e0: aedc fe3c 1831 b3bb c8b0 f7bd 297a 1e3e
000001f0: 976c 04be 27f4 1d3e 037c 033c 8e1d 18be
00000200: bf19 25bd aa31 f9bd b844 28bc 241b 9bbd
00000210: 85fc 24bc d230 8b3d 19b1 253d 3e62 41be
00000220: 3a6a cd3b d76e 65be e143 323d 694b 943c
00000230: 3e2d 003e 4547 803e 7408 223d 08d0 963e
00000240: 763e 22bc 181a 823d b8c5 103c c348 eabc
00000250: 3b53 7d3d 97b7 173c 936b 4d3d 0b7e edbb
00000260: e0fd 57bd e66a 283d ba07 6e3a 7ea1 f43c
00000270: 1101 45bb 9faf 8bbc 7303 393c 1657 f7bc
00000280: 74e9 59bc 395c edbb 08ea 823c aeb5 f4bb
00000290: e7a9 ee3c dd61 8abb 89d6 c9ba 5bb1 f7bc
000002a0: 8030 8ebc 17c1 bd3a 2007 85bb e6e6 e2bd
000002b0: bd69 9abd f3c0 203c 0ee7 c83d 11e5 633e
000002c0: d628 1f3d 2f96 973c e832 3c3e aebe cd3d
000002d0: 1911 203c 585d 973c e597 ffbb d7e9 6bbe
000002e0: a0d0 35bc ab39 2abf f939 edbd 0e1b 20bb
000002f0: 5b58 dfbd f017 17bb caba 1abc a7d9 013d
00000300: 74c4 1d3d a5f2 cabd dc68 c13c e5fe 98bc
00000310: 58b8 f9ba 6d9f a83c aad2 12be dd6c 2e3e
00000320: 1faf e5bd 868d f43c 22e9 4fbe c6ac 8a3c
00000330: de84 4fbd 7372 33be 7f76 10bd be44 6bbc
00000340: 5de6 543d 9eb6 3fbd f7e5 00be 76eb fbbd
00000350: f0e0 6a3d dc4f 813d af44 88bd ac68 de3b
00000360: e6b8 a43c 621c 6c3d 9dbb bd3c fe7f 3f3d
00000370: 1e50 9d3e acde 75bd 7310 9ebd 46d2 efbe
00000380: 3dba d3bc 638d 383c fd06 81bd 2cd4 f13c
00000390: 9958 f7bc 6300 473b 8d2b 0a3d 8718 98bc
000003a0: d5c7 923c adc7 9f3c 7133 a7bd fec6 a33e
000003b0: 0cc0 4ebd 642a 75bd 09e9 9cbd 540c ebba
000003c0: 74c0 01be 4ec0 61bf 9eb9 11be 83db 0cbd
000003d0: 2042 86bc 4182 763d 2a69 943c 07a0 f800
000003e0: 1675 38bd 3fb4 f5bc 84c9 b93c 2a38 6dbc
000003f0: e5f3 fc3c 1bd3 8b3d cba1 25be f258 ac3d
-0.23059186 -0.030431317 -0.17936862 -0.040256172 0.104834996 0.14269339 0.39803264 0.19452439
0.2038522 0.060206942 0.031270258 0.08658784 0.055903345 -0.034936808 -0.03822199 0.0955048
-0.0011489575 0.011263233 -0.11469706 -0.007060178 -0.025921261 -0.14828183 0.054368053 -0.14536373
-0.03816708 0.015283366 -0.029353732 -0.17302409 -0.056599922 -0.061527003 -0.0629521 -0.07418171
-0.06004178 -0.11919762 -0.1924048 -0.14925018 0.0020565111 -0.012219786 0.15129673 -0.05572356
-0.007398498 0.13232787 -0.1516983 0.007940904 0.035079654 0.034380678 -0.0176554 0.11418192
0.028720006 0.14706987 0.11082054 -0.073248655 0.021319747 0.01698128 0.04919844 -0.013261424
0.014994464 0.03627246 -0.018900093 -0.012278004 0.03931817 0.015370601 0.049580127 -0.07750601
-0.26439333 -0.17446826 -0.22334732 -0.04590047 -0.12737878 -0.061595753 -0.34340376 -0.19286598
0.059436712 -0.033589542 0.030408964 0.10305901 0.016240325 -0.07462313 -0.028108088 0.04637642
-0.035442162 0.022610703 -0.10892179 0.018096697 -0.05263184 0.11518544 0.13214575 -0.042132705
0.06000813 0.005718195 -0.09327003 -0.14967808 -0.12701173 0.0045321886 0.080202274 0.011926109
0.08044063 0.14495613 0.04500341 -0.13920961 -0.13172808 -0.04154953 0.23255786 -6.900793e-38
-0.12816527 0.019999547 0.27492234 0.3596797 -0.110223345 0.111916706 -0.07228495 0.034718394
-0.10790039 -0.0007781231 -0.14611405 -0.07071366 -0.11466986 -0.15117724 0.13415162 -0.14578389
0.031111088 -0.005468499 -0.12094265 0.15476288 -0.12932049 0.15425168 0.008025172 -0.14855024
-0.040307757 -0.12167676 -0.01027029 -0.07573536 -0.010069971 0.06796421 0.040452097 -0.18885133
0.0062687667 -0.22405563 0.043521766 0.018102365 0.12517259 0.25054374 0.039558843 0.2945559
-0.009902587 0.06352633 0.008836202 -0.028599149 0.061846953 0.00926008 0.05015142 -0.0072476915
-0.05273235 0.04111757 0.0009080131 0.029862162 -0.003006045 -0.017051516 0.011292326 -0.030192893
-0.0133002885 -0.00724366 0.015980735 -0.007467947 0.02913375 -0.004223092 -0.001539902 -0.030235937
-0.017357111 0.0014477101 -0.0040596873 -0.11079197 -0.07539699 0.009811628 0.09809695 0.2225535
0.038857304 0.01850423 0.18378794 0.10046135 0.009769701 0.018477127 -0.0078000897 -0.23038422
-0.011097103 -0.66494244 -0.11583323 -0.0024430188 -0.10905524 -0.002305504 -0.009443948 0.03170171
0.03851743 -0.09909562 0.023609571 -0.01867623 -0.0019052131 0.020583833 -0.14338174 0.17033716
-0.11215042 0.02985264 -0.20303777 0.016928088 -0.05066382 -0.17524128 -0.035269257 -0.014359651
0.051977504 -0.046805017 -0.12587725 -0.1230077 0.057343423 0.0631406 -0.06653725 0.00678738
0.020107698 0.057644255 0.02316075 0.046752922 0.30725187 -0.06002681 -0.07717981 -0.46840113
-0.025845641 0.011264178 -0.06300161 0.029520117 -0.030193614 0.003036522 0.03373294 -0.018566383
0.017917553 0.019504393 -0.081641085 0.31987756 -0.05047612 -0.05985488 -0.076616354 -0.0017932751
-0.12671071 -0.8818406 -0.14230964 -0.03438903 -0.016388953 0.060182814 0.018116552 2.283261e-38
-0.045033537 -0.029993175 0.022679098 -0.014478723 0.030878017 0.068273745 -0.16175 0.084154025

decoder.0.bias f4 [16]
00000000: d55e cabe 4fca d73d b164 57bd fb5b 8abd
00000010: 9df1 813d 4501 473d 5ffd 13bd c36c 2c3e
00000020: 2ec1 0a3d daa0 d23d 350e 023e 16d1 40bf
00000030: 9a62 2e3e 9380 a23d 152f cc3c 0e9b 87be
-0.39525476 0.10536634 -0.05258626 -0.06755825 0.06344912 0.048585195 -0.036130305 0.16838364
0.033875637 0.10284586 0.12700732 -0.7531904 0.17029801 0.0793468 0.024924794 -0.26485485

decoder.2.weight f4 [16, 8, 5, 5]
00000000: ad04 0f3d e207 0d3d 3612 0b3d 565d db3c
00000010: b1b8 fbba 7c46 203e 81c3 8c3e 241a 893e
00000020: 00f9 893e c0ed 093e e9da e8bc 3d57 9bbd
00000030: 7806 a2bd bc60 97bd 686a 70bd e060 b4bc
00000040: ce11 95bd 8146 8fbd 17da 79bd ba81 32bd
00000050: 4584 993d 4114 043e 5843 083e 4729 003e
00000060: fd3a 413d ec78 9c3d cdd2 043e 2547 153e
00000070: 0c2f 143e 327b 743d a64f cc3c ed5e e73c
00000080: 5377 413d 163f 313d 961d 80bb 2a98 45bc
00000090: ca06 11bd c3b7 8ebc d4b7 45bc b441 03bc
000000a0: 8f15 b03d 65c3 023e 5ae5 0e3e 070c 1b3e
000000b0: a5e1 0a3d 27aa 043c b054 013b 486a 2e3c
000000c0: 1b08 b3ba b064 22bc 1c5e 533d 981d b83d
000000d0: 3237 c23d 8cba bd3d e739 413d 45b4 f8bc
000000e0: fbe6 83bd 706e 8fbd 69b9 83bd 8653 05bd
000000f0: 7ca0 aa3b 6e38 3abc bea2 bbbb 568f 0ebc
00000100: 9591 86bc dc85 723d 7875 d13d 882d c43d
00000110: ed89 b13d db2b 173d c2ad dcbc 5ed7 5abd
00000120: 0657 5ebd 7a75 4dbd a0f7 dfbc 6e4b e33d
00000130: 82c0 373e df41 3f3e 88d8 403e 6d01 ac3d
00000140: daa5 d53d b064 303e 3658 453e d519 3d3e
00000150: 90d7 a23d 2363 61bd 0b9c b2bd c62c a6bd
00000160: 5cf0 9ebd 2a8f 33bd 6d55 d93d e330 213e
00000170: 9fe3 363e 7587 283e 46cc 633d fc5d 813d
00000180: d3df db3d 160d 003e 1ebd e73d b66b 2c3d
00000190: b892 403d 5a99 ce3d 00fd ec3d 6af3 f33d
000001a0: 3ab8 8f3d 85ac 9ebd ea97 10be ab8a 24be
000001b0: 15f5 2dbe 8be1 95bd b8fb 60bc f654 aabc
000001c0: 9eef 59bc 8c06 64bc a97d 37bb 197a 7b3d
000001d0: dcf2 c13d df27 e63d 1196 df3d d3f0 1d3d
000001e0: 444f 5ebd e1db cdbd 3e74 dbbd 2dca f0bd
000001f0: 0b66 77bd 37d4 09bc 33de 243b dd2d a83c
00000200: a1a2 8d3c 5cd8 b23b 8934 0f3d 1bd7 3e3d
00000210: 6e9a 5c3d 4630 503d 5b30 f83b 64fa a6bc
00000220: 22b8 57bd 824e 16bd d62c 1dbd f657 c4bc
00000230: 7377 92bb 3947 23bd 96f4 84bc 355c d0bc
00000240: 9a65 08bd 22fa a33c 56ac 793b 741f 123c
00000250: cbc9 feba 441a 7bbc 052c 37bd 43ae b4bd
00000260: 64fd b2bd 97d8 b7bd 2354 16bd ec2d 9f3d
00000270: 24c9 0f3e a93b 253e a0b9 173e a4a9 973d
00000280: eb88 b9bb e94c 4fbc c370 9cbb 5588 14bc
00000290: 1cdd 98bc 416f c3bd b76b 35be 2ac7 2abe
000002a0: a645 28be 9c38 aebd b2da 093d e16f 3d3d
000002b0: 2a56 523d 9ab7 293d f06f 483c d409 39bc
000002c0: b170 67bc 82f4 53bc 5a59 90bb 5804 9dbb
000002d0: 33a8 eaba 05f9 3abb 206f 19ba 6396 97bb
000002e0: c398 e8ba 3a90 e13c 596c 523d 8af4 4f3d
000002f0: f81e 0a3d b372 d53c 7400 c0bb 97ad 31bd
00000300: a745 87bc 3982 09bd 6bbf b4bc 7187 22bc
00000310: fb76 8abc 9aa8 5fbb f082 a5bb ddb0 d13b
00000320: a208 a53c 3eee 333d de75 503d 1a10 4e3d
00000330: c07a 0e3d bc9d 263c 5efe bf3c e4d1 083c
00000340: 6942 753c fbca 743c abbf 023e 3e6a 7d3e
00000350: ed10 803e 0b7d 773e ec66 f23d a8d9 693d
00000360: d221 c83d 4a08 cf3d 97d9 d83d caab 323d
00000370: 6b45 e8bc 1bc0 1bbd b599 f9bc 83c2 04bd
00000380: cdfc 39bc 5522 533c 4f2f c23c 0292 9e3c
00000390: 9b34 d73c df61 a339 9298 623d 3bbd e13d
000003a0: c5d7 133e d81f 063e ed4c 813d 0802 293d
000003b0: 2248 d73d 1aed ef3d b856 fd3d 3772 843d
000003c0: 0e79 91bc a848 6bbd d850 07bd 67a9 03bd
000003d0: 1a98 efbc 8462 3e3c 83e8 153d c622 653d
000003e0: d3c1 533d 8b1c d43c afa4 65bc 5270 383c
000003f0: 11b3 8d3b 6856 9d3a 9869 8c3c 556d ff3c
0.03491657 0.034431346 0.033952914 0.026777904 -0.0019204823 0.15651888 0.27492908 0.26777756
0.26947784 0.134696 -0.028424697 -0.07584999 -0.0791139 -0.073914975 -0.058695227 -0.02201885
-0.072787866 -0.069958694 -0.060999002 -0.04358075 0.074959315 0.12898351 0.1330694 0.12515746
0.047175396 0.076402515 0.12971039 0.1457792 0.14471072 0.0596878 0.024940323 0.028243506
0.047232937 0.043273054 -0.003909777 -0.0120602045 -0.035406865 -0.017421609 -0.012067754 -0.00801127
0.08597862 0.1276985 0.13954678 0.15141307 0.033906598 0.008097208 0.0019734316 0.010645457
-0.0013659032 -0.009911701 0.05160342 0.089900196 0.09483184 0.092640966 0.04717436 -0.030359397
-0.064405404 -0.07003486 -0.064318486 -0.032550357 0.0052071195 -0.011365993 -0.0057261875 -0.008701166
-0.01642684 0.05920969 0.102274835 0.09578997 0.086688854 0.03690706 -0.026938323 -0.053428046
-0.05428221 -0.050160863 -0.027339756 0.110983714 0.1794453 0.18677472 0.188326 0.083987094
0.10432024 0.17225909 0.19271931 0.18466885 0.079512715 -0.055026185 -0.08721169 -0.081140086
-0.07760689 -0.043837704 0.10611997 0.15741305 0.17860268 0.16457923 0.055614732 0.06316754
0.107360505 0.12504992 0.11315368 0.04209491 0.047014922 0.10087843 0.115716934 0.11911662
0.0701756 -0.07747749 -0.1412045 -0.16068523 -0.16988023 -0.073184095 -0.013731889 -0.020792466
-0.013301758 -0.0139175765 -0.0027998483 0.06139574 0.0947015 0.112380736 0.10917295 0.038559746
-0.054274812 -0.10051704 -0.10715531 -0.11757312 -0.06040005 -0.008412412 0.0025156855 0.020529682
0.017289462 0.005457921 0.03496221 0.04659186 0.053858213 0.050827287 0.007574124 -0.020383067
-0.052665837 -0.036695965 -0.038372837 -0.023967724 -0.004469806 -0.039862845 -0.016229909 -0.025434593
-0.03330002 0.020016734 0.0038097105 0.008918632 -0.0019438801 -0.015326086 -0.044719715 -0.088223
-0.08739737 -0.08976858 -0.036701333 0.07772431 0.14041573 0.1613604 0.14816904 0.07405403
-0.005662074 -0.012652614 -0.0047741844 -0.009065707 -0.01866012 -0.095427044 -0.17716871 -0.16677538
-0.16432819 -0.08506891 0.03365583 0.046249274 0.051351704 0.04143486 0.012233719 -0.011293847
-0.014125989 -0.012936713 -0.004405183 -0.0047917776 -0.001790291 -0.0028529775 -0.0005853046 -0.004626082
-0.0017745722 0.027534593 0.05137286 0.05077032 0.03372094 0.02605567 -0.005859429 -0.04337844
-0.016512705 -0.033571456 -0.022063931 -0.009919987 -0.016902437 -0.0034127594 -0.0050510094 0.0063992576
0.020145718 0.043928377 0.050893657 0.050308324 0.034785032 0.010169443 0.023436721 0.008350823
0.014969447 0.014940972 0.12768428 0.2474756 0.25012913 0.24168794 0.11836037 0.05709234
0.09772076 0.10109003 0.10588377 0.043620862 -0.028353414 -0.038025003 -0.030468801 -0.032412063
-0.011351776 0.012886603 0.0237042 0.019356731 0.026270201 0.00031162702 0.055321284 0.11022421
0.14437778 0.13098085 0.063135006 0.041261703 0.10511805 0.117151454 0.12370056 0.06467097
-0.017757919 -0.057442337 -0.033036083 -0.032143977 -0.029247332 0.011620168 0.036598694 0.055941366
0.051698517 0.025892517 -0.014016314 0.011257248 0.004324325 0.00120039 0.017140195 0.031180063

decoder.2.bias f4 [8]
00000000: ed92 7e3e 2c69 dc3d b278 543e e722 a83d
00000010: a503 853e 26cb e0bc 38db 283e f634 26bd
0.24860735 0.107622474 0.20749167 0.08209782 0.25979343 -0.027440619 0.16489875 -0.04057785

decoder.4.weight f4 [8, 3, 2, 2]
00000000: b8ac 07be d8cb 07be dfe5 8abc 88bc 8abc
00000010: 3585 8a3e f646 8a3e 9e11 2b3f 2fe0 2a3f
00000020: c852 01be a6ec 00be 1834 463f d7e6 453f
00000030: 1b13 45be 0dc9 44be 9c86 f63e 03a2 f63e
00000040: c6b1 86bd 7e13 85bd a5e0 73be 7933 73be
00000050: 51b4 0b3f 7f5b 0b3f 427b 463e efca 453e
00000060: 37f2 3a3d 4697 3a3d 9530 8abd c52f 8abd
00000070: 6344 863f 3111 863f f37b 5dbe cfa5 5dbe
00000080: b2ee a73e a998 a73e 2bd8 93be 75a2 93be
00000090: 20b7 4f3e 13e3 4f3e a873 6bbe b73c 6bbe
000000a0: bbfa 9fbe d6dc 9fbe cfd2 a0be 73b0 a0be
000000b0: 0382 073f 8a87 073f 4724 013f f11f 013f
000000c0: 5b14 5e3e fa11 5e3e 5beb 143e 9ecc 143e
000000d0: 3cf2 5fbe 6dce 5fbe 7e57 3c3f cd20 3c3f
000000e0: 9a1d c63e e3db c53e d2a9 0dbf af65 0dbf
000000f0: e299 3b3f 362f 3b3f 2cd8 36be 7e10 38be
00000100: 2e7a 5dbd e7d0 57bd 1ed3 e0bc 7e6e d5bc
00000110: 47b8 643d 431e 623d be6f a5b9 5f99 11bb
00000120: ccbd bb3e b4b2 bb3e b6c6 c43e 15db c43e
00000130: 9637 fa3d f5d9 f93d dd04 40be 1aef 3fbe
00000140: 7409 15bf 03aa 14bf fbd9 623e a2cc 633e
00000150: fd4d 2bbe e2e4 2abe 2380 273f aa0b 273f
00000160: 9145 84bc 95d9 84bc acf7 d5bc b12e cfbc
00000170: 06d3 1dbd 14ee 1bbd 30ca 80ba a86b f6ba
-0.1324948 -0.13261354 -0.016955314 -0.016935602 0.27054754 0.27007264 0.66823757 0.66748327
-0.12629235 -0.12590274 0.7742324 0.7730536 -0.1924557 -0.1921732 0.48149574 0.4817048
-0.06576876 -0.064978585 -0.23816164 -0.23750104 0.54572016 0.54436487 0.19382957 0.19315694
0.04564115 0.04555442 -0.067475475 -0.067473926 1.048962 1.0473996 -0.21629314 -0.21645282
0.32799298 0.32733658 -0.2887586 -0.28834882 0.202847 0.20301466 -0.22993338 -0.2297238
-0.3124598 -0.31223172 -0.31410834 -0.3138462 0.5293276 0.5294119 0.5044598 0.50439364
0.21687452 0.21686545 0.14542906 0.1453118 -0.21869749 -0.21856089 0.73571 0.7348755
0.3869446 0.38644323 -0.5533725 -0.5523328 0.7328168 0.73118913 -0.178559 -0.17975041
-0.054071598 -0.05268946 -0.027444419 -0.026053663 0.055839803 0.05520464 -0.00031554507 -0.002221666
0.3666824 0.36659777 0.38432854 0.38448396 0.122176334 0.12199775 -0.18751855 -0.18743554
-0.5821755 -0.5807192 0.22153465 0.2224603 -0.16728969 -0.16688874 0.65429896 0.6525217
-0.016146453 -0.016217032 -0.026119076 -0.025290819 -0.038531326 -0.038068846 -0.0009825882 -0.0018800395

decoder.4.bias f4 [3]
00000000: 4b94 debd da2b 7f3e 1cd0 dcbd
-0.108681284 0.24919072 -0.10781881
