conv_autoencoder_real.pth (torch_old, 26032 bytes, 10 tensors)

encoder.0.weight f4 [16, 3, 3, 3]
0	0x33d35b8e	9.842107e-08
1	0x33d42c3d	9.880066e-08
2	0x33d5818f	9.942152e-08
3	0x33f04df0	1.11900476e-07
4	0x33f18c12	1.1247916e-07
5	0x33f145aa	1.1235109e-07
6	0x33f4fbc3	1.14079306e-07
7	0x33f5966e	1.14360645e-07
8	0x33f4de1a	1.14025354e-07
9	0xb22a6afa	-9.919626e-09
10	0xb23dada2	-1.1040727e-08
11	0xb22a4b26	-9.912389e-09
12	0x31c5470c	5.7415317e-09
13	0x31adf208	5.0624784e-09
14	0x31dbfb00	6.4022743e-09
15	0xaf44a200	-1.788365e-10
16	0xb053dee0	-7.707808e-10
17	0x2fef3740	4.3513104e-10
18	0xb43548d0	-1.6883428e-07
19	0xb43549b0	-1.6883746e-07
20	0xb434a81a	-1.6824961e-07
21	0xb4432e30	-1.8177593e-07
22	0xb4431b78	-1.8170783e-07
23	0xb44257d4	-1.809961e-07
24	0xb436063c	-1.6952339e-07
25	0xb4366148	-1.6985462e-07
26	0xb435f97f	-1.6947705e-07
27	0x813ad222	-3.4313567e-38
28	0x8141943e	-3.555486e-38
29	0x810b9372	-2.5636055e-38
30	0x81883d60	-5.004658e-38
31	0x816248c0	-4.156184e-38
32	0x8188d170	-5.025904e-38
33	0x81356138	-3.33142e-38
34	0x81516ffe	-3.8467588e-38
35	0x812ebd38	-3.209451e-38
36	0x80b93f03	-1.7012171e-38
37	0x80ac373c	-1.581552e-38
38	0x809510a5	-1.368946e-38
39	0x80b0a317	-1.6221553e-38
40	0x80ae365a	-1.5998874e-38
41	0x80d2b089	-1.9348783e-38
42	0x803c34e2	-5.5291e-39
43	0x80495e60	-6.737847e-39
44	0x806baacb	-9.887667e-39
45	0x809f9615	-1.4655683e-38
46	0x80a669a3	-1.5282588e-38
47	0x80a59308	-1.5205602e-38
48	0x80ac26a9	-1.5809574e-38
49	0x809b649e	-1.4270597e-38
50	0x80a43a58	-1.5081951e-38
51	0x80c6aab1	-1.8244661e-38
52	0x80c4743d	-1.8041456e-38
53	0x80b92706	-1.7003566e-38
54	0xbeb87307	-0.3602526
55	0xbec46341	-0.38356975
56	0xbecf7b72	-0.4052387
57	0xbd83550f	-0.06412708
58	0xbd85c1e5	-0.06531123
59	0x3a835001	0.001001835
60	0x3e34a746	0.17641935
61	0x3e477f8e	0.19482252
62	0x3e5de7b0	0.21670413
63	0x3d2d17cc	0.042259023
64	0x3c905e27	0.01762302
65	0x3ba92b16	0.005162607
66	0x3d475861	0.04866827
67	0x3ca95ab2	0.02067313
68	0x3c66cfce	0.01408763
69	0xbc7b0cba	-0.0153228585
70	0x3dad4718	0.08460826
71	0x3ce7e8b4	0.028309204
72	0x3e2ef650	0.17086148
73	0x3e18e2e7	0.14930306
74	0x3d93465a	0.07191153
75	0xbcaab5be	-0.020838615
76	0x3cbb16d2	0.02283803
77	0x3d00af4d	0.03141718
78	0x3ebaeccc	0.36508787
79	0x3e73ed18	0.23820913
80	0x3ed3791c	0.41303337
81	0x8162c8be	-4.165367e-38
82	0x818cb25e	-5.168382e-38
83	0x818c5112	-5.154421e-38
84	0x00c2c0f2	1.7885302e-38
85	0x00bdd402	1.7432963e-38
86	0x007cd10a	1.146259e-38
87	0x80e34046	-2.0869715e-38
88	0x80cfc7c4	-1.908161e-38
89	0x8102210a	-2.3900933e-38
90	0x00268aa4	3.539484e-39
91	0x007a0c33	1.1208307e-38
92	0x001092db	1.52205e-39
93	0x8112e59a	-2.6980696e-38
94	0x80dc3456	-2.0222584e-38
95	0x80ed9f4a	-2.1822155e-38
96	0x808c5e7d	-1.2890865e-38
97	0x00700a02	1.0289166e-38
98	0x0000d8d4	7.7783e-41
99	0x81010b01	-2.3701453e-38
100	0x810735da	-2.483422e-38
101	0x8109a080	-2.527808e-38
102	0x819b9be5	-5.7161705e-38
103	0x819b4b4d	-5.704606e-38
104	0x81916696	-5.341179e-38
105	0x8121a6c4	-2.9690678e-38
106	0x813058ea	-3.2389887e-38
107	0x8114f960	-2.7362225e-38
108	0x3d667cb4	0.05627127
109	0xbe0b7722	-0.13619664
110	0xbd0f2066	-0.034943007
111	0x3d8418b6	0.06450026
112	0x3cc838f5	0.024441222
113	0x3d3a31d4	0.045457676
114	0x3da6fc19	0.081535526
115	0x3cf74dbe	0.030188438
116	0x3e1486c0	0.14504528
117	0xbcf9273c	-0.030414216
118	0xbc0809b7	-0.008303097
119	0x3ddde643	0.108349346
120	0x3d82cb8e	0.06386481
121	0x3d7c4428	0.061588436
122	0xbc0d263f	-0.008615076
123	0x3e003572	0.12520388
124	0xbcd2af63	-0.025718397
125	0x3df78b3a	0.12087102
126	0xbee30f28	-0.443475
127	0xbedce806	-0.4314577
128	0xbe8a9756	-0.27068585
129	0xbe1cb3a9	-0.1530291
130	0x3d447b92	0.04796941
131	0x3e1ab106	0.15106592
132	0x3e202b29	0.15641464
133	0x3ca0405a	0.019561935
134	0xbd196f21	-0.037459496
135	0x005e3c89	8.654253e-39
136	0x005e77e6	8.675548e-39
137	0x801b2d1f	-2.495745e-39
138	0x00c822c4	1.8379571e-38
139	0x00b853ab	1.6927746e-38
140	0x00e2ca9d	2.0827506e-38
141	0x8104de4e	-2.4404067e-38
142	0x80a482c8	-1.5107937e-38
143	0x809d9ed6	-1.4475152e-38
144	0x014a1454	3.7116125e-38
145	0x0122de84	2.9914348e-38
146	0x01330798	3.2882556e-38
147	0x004c44a3	7.00412e-39
148	0x000c512c	1.131145e-39
149	0x003fdc7f	5.864735e-39
150	0x807c2a7b	-1.140284e-38
151	0x807ec2f6	-1.1641211e-38
152	0x80860e21	-1.2311025e-38
153	0x81a8aa13	-6.19575e-38
154	0x81ac6450	-6.332676e-38
155	0x81a67446	-6.1145614e-38
156	0x81a2cdfb	-5.980497e-38
157	0x8193ef10	-5.434231e-38
158	0x818fabfd	-5.2776695e-38
159	0x818e2ad5	-5.222402e-38
160	0x818ca795	-5.1668346e-38
161	0x81854de6	-4.896826e-38
162	0x3b85f7c1	0.0040883725
163	0xbd46887f	-0.048470017
164	0x39c320a5	0.0003721762
165	0x3eba7a67	0.3642151
166	0x3eb5f9e3	0.3554221
167	0x3eb745df	0.35795495
168	0x3ec9d7b5	0.39422384
169	0x3eef32b3	0.46718368
170	0x3eea57fc	0.45770252
171	0x3b6432a2	0.0034820219
172	0xbda32412	-0.07965864
173	0x3d4e1d6c	0.050321028
174	0xbd84b6aa	-0.06480153
175	0x3c8dda27	0.017315937
176	0x3de5be0c	0.11217889
177	0xbd95113f	-0.0727868
178	0x3d9a9c94	0.07549396
179	0xbdef842d	-0.116951324
180	0x3e032ec6	0.12810811
181	0x3d955cc9	0.07293088
182	0x3e12691d	0.1429791
183	0x3d247d16	0.040158354
184	0x3d10a0db	0.035309654
185	0x3d1b1beb	0.03786842
186	0xbe4577e9	-0.19284023
187	0xbe01f52f	-0.12691186
188	0xbe2aaec8	-0.16668236
189	0x3da50368	0.0805729
190	0x3dab0397	0.08350294
191	0x3d9c1a8b	0.0762225
192	0xbc135afb	-0.008993859
193	0xbcca34c6	-0.024683367
194	0xbc0a7e31	-0.008452938
195	0x3de21ac7	0.110402636
196	0x3dbe3dd6	0.09289138
197	0x3d69c94a	0.05707673
198	0xbe0fa908	-0.14029324
199	0xbe174801	-0.14773561
200	0xbdfb9dc9	-0.122859545
201	0xbe237dfb	-0.15966026
202	0xbe37ad7f	-0.17937277
203	0xbe2329ee	-0.15933964
204	0xbe226e44	-0.15862375
205	0xbe23fb12	-0.16013744
206	0xbe032b28	-0.12809432
207	0x3da6455e	0.081186995
208	0x3d92f03e	0.07174729
209	0x3da8a223	0.0823405
210	0x3e105884	0.14096266
211	0x3e0d9142	0.13824943
212	0x3e0ca575	0.13734992
213	0x3e3aa21a	0.182259
214	0x3e3023c4	0.17201144
215	0x3e3876ae	0.18014023
216	0xbd73d532	-0.05952949
217	0xbd9c813c	-0.07641837
218	0xbdcf8d74	-0.10134402
219	0xbd095c9b	-0.03353558
220	0xbddf4cd6	-0.10903327
221	0xbd95223e	-0.07281922
222	0x3d2b6d14	0.041852072
223	0xbc3ea64e	-0.01163633
224	0x3d7906cc	0.060797498
225	0x3eb9a6a3	0.36259946
226	0x3eb65a55	0.35615793
227	0x3ec6bc78	0.38815665
228	0xbead7404	-0.33877575
229	0xbeaac820	-0.33355808
230	0xbe837fa0	-0.25683308
231	0x3e8db796	0.27679127
232	0x3e9fbd70	0.31199217
233	0x3ed66d68	0.41880345
234	0x3d67cfdd	0.05659472
235	0xbe2ad64f	-0.16683315
236	0x3d38e0aa	0.04513613
237	0x3d46166e	0.048361234
238	0x3d8f9e29	0.070125885
239	0xbd85c4b7	-0.06531661
240	0xbe05315d	-0.13007112
241	0xbc238503	-0.009980443
242	0xbe120619	-0.14260139
243	0xbee49b50	-0.44649744
244	0xbed35554	-0.41276038
245	0xbecb67bd	-0.39727584
246	0x3efbc6ee	0.4917521
247	0x3f04efe0	0.5192852
248	0x3f05e76c	0.52306247
249	0xbe2cf9c8	-0.16892159
250	0xbe47d970	-0.1951654
251	0xbe3903d5	-0.18067868
252	0x3c8046cd	0.01565876
253	0x3d436d20	0.04771149
254	0x3d45e892	0.0483175
255	0x3b15f3fe	0.0022881026

encoder.0.bias f4 [16]
0	0xb4a400b1	-3.0547884e-07
1	0x80b4d008	-1.6605017e-38
2	0x3eb69555	0.35660806
3	0x818ff5ea	-5.2882773e-38
4	0x3f2fb472	0.6863471
5	0x810c5f20	-2.5782188e-38
6	0xbd100f76	-0.035170995
7	0x3e8e49de	0.2779073
8	0x3dfed32f	0.12442624
9	0xbd28f714	-0.041251257
10	0xbeb41e2d	-0.35179272
11	0x8157666e	-3.9562753e-38
12	0x919c912e	-2.4701934e-28
13	0x3b1393b5	0.002251846
14	0xbe557b4d	-0.20847817
15	0xbe8ddc3b	-0.27707085

encoder.3.weight f4 [8, 16, 3, 3]
0	0x34544a28	1.9771016e-07
1	0x345c39b6	2.0510092e-07
2	0x3465325c	2.1345608e-07
3	0x34304da9	1.641953e-07
4	0x3437258a	1.705686e-07
5	0x343e04f2	1.7696928e-07
6	0x34207c38	1.4946352e-07
7	0x3424b012	1.5337744e-07
8	0x34290d5d	1.5744213e-07
9	0x0087002c	1.2397854e-38
10	0x0077d6d2	1.1005487e-38
11	0x01245a40	3.0186794e-38
12	0x01433874	3.5856347e-38
13	0x0164fb2a	4.2057188e-38
14	0x012f4ec4	3.2198935e-38
15	0x00c8c0e0	1.843629e-38
16	0x013aecea	3.4332782e-38
17	0x010df00c	2.6069835e-38
18	0x3dccc0d3	0.09997716
19	0x3dc4acd1	0.096032746
20	0x3d0e3f58	0.034728378
21	0x3de2b25f	0.11069178
22	0x3ddfa12c	0.10919413
23	0x3e0e9249	0.13922991
24	0x3e2f45dd	0.17116494
25	0x3def3ccf	0.1168152
26	0x3dd80d3f	0.105494015
27	0x01192500	2.8128208e-38
28	0x006172c0	8.949208e-39
29	0x001d9294	2.715812e-39
30	0x012d883a	3.187282e-38
31	0x80282710	-3.687433e-39
32	0x016db622	4.36607e-38
33	0x01223c09	2.9797774e-38
34	0x0185ef48	4.9199836e-38
35	0x017a3946	4.595884e-38
36	0x3e140638	0.14455497
37	0x3dfff7e6	0.12498455
38	0x3df75a1e	0.12077735
39	0x3e1fdb27	0.15610944
40	0x3e1e3ec6	0.15453634
41	0x3e0683fe	0.13136289
42	0x3ea91324	0.33022416
43	0x3ea923e4	0.33035195
44	0x3ea000b0	0.31250525
45	0x81046259	-2.4315132e-38
46	0x8169b6a7	-4.2926388e-38
47	0x80cece23	-1.899206e-38
48	0x8111ca38	-2.677738e-38
49	0x804f7c5b	-7.299615e-39
50	0x814184ec	-3.5543868e-38
51	0x80d35a76	-1.9409741e-38
52	0x8093268f	-1.351365e-38
53	0x80a516d6	-1.5161049e-38
54	0xbd8eb9e7	-0.06969052
55	0xbe442356	-0.19154105
56	0xbda639f4	-0.081165224
57	0xbac4de42	-0.0015019851
58	0xbe382446	-0.17982587
59	0xbd0cbd3a	-0.034360148
60	0xbec976a2	-0.39348322
61	0xbef3e77f	-0.47637555
62	0xbebfb892	-0.37445503
63	0xbca03af2	-0.019559357
64	0xbde5eabf	-0.11226415
65	0xbd149eb0	-0.03628415
66	0xbba58d0c	-0.0050522145
67	0xbdec4b84	-0.11537841
68	0xbcdcbba5	-0.026944945
69	0x3deae095	0.11468617
70	0x3ceed08c	0.029152177
71	0x3de6b83d	0.112656094
72	0x3ac92f13	0.0015349112
73	0xbc146bd9	-0.009058916
74	0xbc115824	-0.008871112
75	0xbd1b7c15	-0.03796013
76	0x3bf6caf8	0.00753152
77	0xbd52eaa6	-0.05149331
78	0x3ce8a249	0.028397696
79	0x3ca1a1ef	0.019730536
80	0xbc844ad8	-0.01614897
81	0x3cf2809a	0.029602338
82	0x3d4ffed2	0.050780125
83	0x3d080448	0.033207208
84	0x3e0f310b	0.13983552
85	0x3dad8a83	0.08473685
86	0x3e0b326d	0.13593455
87	0xbe31122e	-0.17292091
88	0xbe3d76f6	-0.18502411
89	0xbe5ea236	-0.21741566
90	0x3d8594f9	0.06522555
91	0xbc81cda5	-0.01584513
92	0x3d1c86b6	0.038214408
93	0xbe9007bf	-0.2813091
94	0xbe9fb2a6	-0.31190985
95	0xbe95f4f2	-0.2928844
96	0x3ccf89c1	0.02533424
97	0x3ce731e0	0.028222024
98	0x3b9a8c4f	0.004716433
99	0x0122b54a	2.988477e-38
100	0x01639850	4.1802594e-38
101	0x01033240	2.4096953e-38
102	0x8048f321	-6.699374e-39
103	0x008599cf	1.2269297e-38
104	0x00d09f3e	1.9158909e-38
105	0x0054f08b	7.800472e-39
106	0x007320b6	1.0572817e-38
107	0x0123888e	3.0036345e-38
108	0x8f9eb83d	-1.5650969e-29
109	0x8f8bc62e	-1.3782794e-29
110	0x8f8dafdf	-1.3971417e-29
111	0x8fd64f7e	-2.1132648e-29
112	0x8fcb84d8	-2.0068515e-29
113	0x8fc696bf	-1.9582373e-29
114	0x8fc4f560	-1.9421607e-29
115	0x8fbc7b08	-1.8585621e-29
116	0x8fc12f84	-1.9049572e-29
117	0x3c29bad4	0.010359485
118	0x3d1a5acd	0.03768425
119	0x3ca87ba9	0.020566778
120	0xbd32cd00	-0.043652534
121	0xbccd9a86	-0.025098097
122	0xbd38aeb0	-0.04508847
123	0xbc29d47d	-0.010365603
124	0xbc8ad0ae	-0.01694521
125	0xbc9a8cc4	-0.01886595
126	0xbd60671a	-0.054785825
127	0xbcc3d0ee	-0.023903336
128	0xbde6d3ac	-0.11270842
129	0x3db0b8c5	0.08628992
130	0x3d983603	0.07432177
131	0xbb3b6fb2	-0.002860051
132	0x3d3d0cbf	0.046154734
133	0xbbd33a17	-0.006446134
134	0x3d960f35	0.07327119
135	0xbca9c9a5	-0.020726034
136	0xbc8c2b52	-0.0171105
137	0x3c921c24	0.017835684
138	0x3b9f8bb8	0.0048689507
139	0x3d828da8	0.06374675
140	0x3ca6603c	0.02030956
141	0x3d4f3dd1	0.050596062
142	0x3d36c93c	0.044625506
143	0x3cd3ff82	0.025878672
144	0x33ba1124	8.664418e-08
145	0x33b57aa0	8.450775e-08
146	0x33bc5e87	8.7716266e-08
147	0x33b3ce90	8.3729105e-08
148	0x33b0f32d	8.239872e-08
149	0x33b45323	8.397026e-08
150	0x338a4adf	6.439745e-08
151	0x3382c660	6.089681e-08
152	0x3385699b	6.2125046e-08
153	0x812be58f	-3.157244e-38
154	0x81a4511e	-6.0360483e-38
155	0x8123f35b	-3.011297e-38
156	0x009a50ce	1.4171654e-38
157	0x8118b1f1	-2.8045658e-38
158	0x804b71b6	-6.928454e-39
159	0x80d821f8	-1.9848653e-38
160	0x812da329	-3.1892143e-38
161	0x811458bf	-2.724698e-38
162	0x3ce0d0e0	0.02744335
163	0x3d44008a	0.047852077
164	0x3b51642e	0.003195058
165	0x3e1f5f20	0.15563631
166	0x3e157507	0.14595424
167	0x3dff190e	0.12455951
168	0xbd0beb13	-0.03415973
169	0xbb72b881	-0.0037036242
170	0xbcaf058d	-0.021364952
171	0x01a306dc	5.9886586e-38
172	0x011dda8c	2.8993145e-38
173	0x01489872	3.6843573e-38
174	0x0111acf0	2.675637e-38
175	0x809c88e8	-1.437545e-38
176	0x811906ba	-2.8106488e-38
177	0x00b01598	1.6170794e-38
178	0x01b24d7c	6.549806e-38
179	0x01ba6b4f	6.847959e-38
180	0x3c2d1ae5	0.010565494
181	0x3b912b84	0.0044302363
182	0x3c739567	0.014867163
183	0x3e146473	0.14491443
184	0x3de997f0	0.11405933
185	0x3e3023e6	0.17201194
186	0x3c702411	0.014657036
187	0xbbdb389f	-0.0066900994
188	0x3d0a7940	0.03380704
189	0x006e0aea	1.010582e-38
190	0x00d0fda2	1.919277e-38
191	0x017141dc	4.431196e-38
192	0x0117cb50	2.788019e-38
193	0x0128c25f	3.099618e-38
194	0x0092f52c	1.3495934e-38
195	0x0065cf64	9.349783e-39
196	0x01164d17	2.7605958e-38
197	0x007b6ce4	1.1334829e-38
198	0x3d1efeb4	0.038817123
199	0x3cf50765	0.029910753
200	0x3c930f87	0.01795174
201	0xbd075967	-0.033044245
202	0xbcb2b59c	-0.021815114
203	0xbca06cfd	-0.01958322
204	0x3c4a45e4	0.012345765
205	0x3cf6df88	0.030135885
206	0xbcc5e037	-0.024154766
207	0xbd4a18a1	-0.049339894
208	0xbd2fef49	-0.04295281
209	0xbdb69c05	-0.08916477
210	0x3e4e8d02	0.20170978
211	0x3e5a370d	0.21310063
212	0x3df4f00d	0.119598486
213	0x3e4f1e46	0.20226392
214	0x3e5f1d0e	0.21788427
215	0x3df8026d	0.12109838
216	0xbdf21579	-0.11820502
217	0xbdb0933e	-0.08621834
218	0xbdc759bc	-0.09733912
219	0xbe0603f8	-0.13087451
220	0xbdb19c27	-0.08672362
221	0xbde1d000	-0.11026001
222	0xbe64ca07	-0.22342692
223	0xbde530d8	-0.11190957
224	0xbe451ed7	-0.19250046
225	0xbd00586b	-0.031334322
226	0xbbf9a548	-0.00761858
227	0xbc1676ac	-0.009183567
228	0xbcf7bb01	-0.030240538
229	0xbcc672aa	-0.024224598
230	0xbc91253d	-0.017717952
231	0xbd8da843	-0.06916859
232	0xbda03fd0	-0.07824671
233	0xbd532fa3	-0.0515591
234	0xbc959ac1	-0.018262269
235	0xbd0ff749	-0.03514794
236	0xbd10d4dd	-0.035359252
237	0xbbcfc5d0	-0.0063407198
238	0x3b0aa351	0.0021154473
239	0x3c9e2928	0.019306734
240	0xbc2e9b6b	-0.010657172
241	0xbd3b1b93	-0.045680594
242	0xbcb52483	-0.022112137
243	0x80325d56	-4.625257e-39
244	0x815a9f34	-4.01545e-38
245	0x81360b1a	-3.3436086e-38
246	0x0068ea38	9.634913e-39
247	0x80401f88	-5.888783e-39
248	0x80c1941e	-1.7777385e-38
249	0x80a700a2	-1.5336755e-38
250	0x80245d76	-3.339605e-39
251	0x00228006	3.168333e-39
252	0x901c42e4	-3.0817106e-29
253	0x9027698e	-3.301626e-29
254	0x9019d002	-3.0334173e-29
255	0x8fb69d5c	-1.8007198e-29

encoder.3.bias f4 [8]
0	0x3eaa06cb	0.33208308
1	0x3ea27946	0.3173315
2	0x3dd1f4c9	0.10251767
3	0x3dc9eb81	0.09859372
4	0x3e7ede72	0.24889544
5	0xbec3e918	-0.38263774
6	0x3ea9c54e	0.33158344
7	0x3e45f930	0.19333339

decoder.0.weight f4 [8, 16, 3, 3]
0	0xbdc43284	-0.095799476
1	0xbcc8ba20	-0.024502814
2	0xbcb60785	-0.022220382
3	0x3d91d766	0.07121162
4	0x3dc178ce	0.0944687
5	0x3db7b534	0.08970109
6	0x3df437b0	0.11924684
7	0x3e2bd0fa	0.16778937
8	0x3db6de19	0.089290805
9	0xbc2c6330	-0.010521695
10	0x3d48665a	0.048925735
11	0xbddaf13c	-0.10690543
12	0xbaac9b67	-0.0013168872
13	0xbde553bb	-0.11197611
14	0xbd4f516b	-0.050614756
15	0xbd0f687c	-0.035011753
16	0xbd7e7f02	-0.062132843
17	0xbd0d2173	-0.034455728
18	0xbc0bf6f1	-0.008542762
19	0x3d958fe8	0.073028386
20	0xbb322419	-0.002718216
21	0xbe376f6e	-0.17913601
22	0x3d4362db	0.047701698
23	0xbe5828ec	-0.2110936
24	0xbe4e8847	-0.20169173
25	0xbe2b86a6	-0.16750583
26	0xbe389101	-0.18024065
27	0xbe07478e	-0.1321089
28	0xbe0c48d6	-0.1369966
29	0xbde713f0	-0.112831
30	0xbda42382	-0.08014585
31	0xbe305998	-0.17221677
32	0xbd7ba8a8	-0.06144014
33	0xbe070fe3	-0.13189654
34	0xbe3dd082	-0.1853657
35	0xbe2adab0	-0.16684985
36	0x3da139dc	0.07872364
37	0xbd8f34ed	-0.06992517
38	0x3e0f08ea	0.13968244
39	0x3d3a895c	0.045541152
40	0x0039dec7	5.314541e-39
41	0x3e163964	0.1467033
42	0xbe1be912	-0.15225628
43	0x3dd7e1d7	0.105411224
44	0xbd60292d	-0.05472677
45	0x3d63326a	0.055468
46	0xbd9cadd8	-0.076503456
47	0x3e365b04	0.17808157
48	0x3cedfe7e	0.029052015
49	0x3e3adb29	0.18247665
50	0x3e27e231	0.16394879
51	0xbe610499	-0.2197441
52	0x3d909493	0.07059588
53	0xbe0e8a6b	-0.1391999
54	0x3d5ea73c	0.054358706
55	0xbbc9fc63	-0.00616412
56	0x3c95dd71	0.018294068
57	0xbc940715	-0.018069783
58	0x3a92ca97	0.0011199292
59	0x3cf2a216	0.029618304
60	0x3d8712af	0.065953605
61	0xbb2cdb1d	-0.002637572
62	0x3d1ea2e4	0.038729563
63	0xbe393c92	-0.18089512
64	0xbe09e240	-0.13465214
65	0xbe13efa9	-0.14446892
66	0xbe281ee5	-0.16418035
67	0x3b91deee	0.004451624
68	0xbdccf7d0	-0.10008204
69	0x3c685305	0.01417995
70	0xbe5bf702	-0.21480945
71	0xbc2d3fa3	-0.010574254
72	0x3cbee80b	0.023304006
73	0xbb50ed09	-0.0031879565
74	0xbd5030f0	-0.05082792
75	0x3d8ea025	0.06964139
76	0xbcfee193	-0.031113422
77	0xbd61e873	-0.05515332
78	0x3c2784f1	0.010224567
79	0xbcf6cb7a	-0.030126322
80	0xbd22c20d	-0.039735842
81	0xbd680f14	-0.056655005
82	0xbe12cb9b	-0.14335482
83	0xbd2cb1bd	-0.042161692
84	0xbd6fd37b	-0.058551293
85	0xbcc0da17	-0.023541493
86	0x3d263c6c	0.040584967
87	0x3d870b0e	0.065939054
88	0x3dafa660	0.085766554
89	0x3de6b4bf	0.11264943
90	0xba21d835	-0.000617388
91	0xbe139921	-0.14413883
92	0xbabee397	-0.0014563677
93	0x3b17dfdf	0.002317421
94	0x3d76d200	0.060258865
95	0x3cfbffe4	0.030761667
96	0x3d83e731	0.06440581
97	0x3e60177f	0.21883963
98	0x3ccb010f	0.024780778
99	0x3db9c246	0.09070258
100	0xbea113bd	-0.31460372
101	0x3d66e1a0	0.056367517
102	0x3d3f9fdb	0.04678331
103	0x81bbdb82	-6.900793e-38
104	0xbe6f3bd3	-0.23362665
105	0xbe537541	-0.20650198
106	0x3e0b1268	0.1358124
107	0x38db1876	0.0001044729
108	0xbda37d38	-0.07982868
109	0x3d372c56	0.044720016
110	0xbd32ceb5	-0.043654162
111	0xbcb848ec	-0.02249571
112	0xbe74570d	-0.23861332
113	0xbe00fd55	-0.12596639
114	0xbbc07515	-0.0058733323
115	0xbe211968	-0.15732348
116	0x3d6ba8cb	0.05753402
117	0xbdf80531	-0.12110365
118	0xbc95e692	-0.018298421
119	0xbdb7270f	-0.08942997
120	0xbc89d65d	-0.01682585
121	0x3c129e30	0.008948848
122	0xbe2785ac	-0.16359586
123	0x3de860d1	0.11346591
124	0xbe5644d5	-0.20924695
125	0x3dadbfee	0.08483873
126	0xbd4ba8cd	-0.049721528
127	0xbe245a39	-0.16050042
128	0x3d2aceb7	0.041701045
129	0xbdef1833	-0.116745375
130	0x3dcb3ce9	0.09923727
131	0x3d406990	0.046975672
132	0xbdd94b97	-0.10610121
133	0x3e06b716	0.13155779
134	0x3dcc12b1	0.099645026
135	0xbe8cef25	-0.27526203
136	0xbe35a682	-0.17739299
137	0xbe997aa4	-0.2997638
138	0xbb9555cf	-0.0045573483
139	0xbd071487	-0.03297856
140	0x3c286ae9	0.010279396
141	0x3e78b4d1	0.24287726
142	0x3e37fb9e	0.17967078
143	0x3e876b0b	0.26448855
144	0x3d3c45d5	0.045965035
145	0x3d83c319	0.06433696
146	0x3d3f2ce4	0.04667367
147	0xbba22b3d	-0.004949002
148	0x3d8c3770	0.06846511
149	0xbc22c41d	-0.009934452
150	0x3d5e5a19	0.054285143
151	0x3d0177c7	0.03160837
152	0x3c8042f4	0.015656926
153	0x3d0b7bfa	0.03405378
154	0xbd0cd364	-0.034381285
155	0xbc49d5ac	-0.01231901
156	0xbcc0dd4a	-0.023543019
157	0xbd9eec38	-0.07759899
158	0xb9e766c4	-0.0004413632
159	0x3c71f696	0.014768263
160	0xbb93ce79	-0.0045106974
161	0x3c3f7465	0.011685465
162	0x3d64081c	0.055671796
163	0x3d87aaac	0.0662435
164	0x3dae7c52	0.08519806
165	0xbd17f439	-0.037098143
166	0xbda2f0cd	-0.07956085
167	0xbd54368d	-0.051809836
168	0xbdd69732	-0.10478057
169	0x3cced4e2	0.025247995
170	0x3c57c493	0.013169426
171	0x3b69768c	0.0035623638
172	0x3bb0b5dd	0.0053927735
173	0xbc1aac59	-0.009440505
174	0x3d62676b	0.05527441
175	0x3e010265	0.1259857
176	0x3d4086a1	0.047003392
177	0x3dd7a0c2	0.10528709
178	0x3e2323ee	0.15931675
179	0x3db9c7cc	0.09071311
180	0x3d9057de	0.07048009
181	0x3dce0d99	0.10061187
182	0x3daf7d76	0.08568852
183	0xbe4855cd	-0.1956398
184	0x8022c12a	-3.191701e-39
185	0xbee1274b	-0.4397529
186	0xbd8f29ba	-0.069903806
187	0x3d069ed5	0.032866318
188	0xbc8ee66c	-0.017443858
189	0xbd16ed51	-0.036847416
190	0x3e05f442	0.13081458
191	0x3dabda59	0.08391256
192	0xbc82b1d8	-0.015953943
193	0xbd986df1	-0.07442845
194	0x3caa6a16	0.020802539
195	0xbdf483da	-0.11939211
196	0xbde89ebe	-0.11358403
197	0xbde06c22	-0.10958125
198	0xbd95603d	-0.072937466
199	0x3de1ba45	0.11021856
200	0xbce0a27a	-0.027421225
201	0x3d957b58	0.072989166
202	0xbdf8a97d	-0.12141702
203	0x3d91dfd1	0.07122768
204	0xbd1dd989	-0.038537536
205	0xbd804086	-0.06262307
206	0xbd165152	-0.036698647
207	0x3dc29ad3	0.095021866
208	0x3d93d865	0.07219008
209	0x3dc6675a	0.096876815
210	0xbda59946	-0.08085875
211	0xbdeb2256	-0.114811584
212	0xbd24d9c0	-0.040246725
213	0xbd7ed0a9	-0.062210713
214	0xbb0af663	-0.0021203987
215	0xbc933f7b	-0.017974606
216	0x3e027d9d	0.1274323
217	0xbc77590f	-0.015096917
218	0x3e03ecd8	0.12883317
219	0x3d880b84	0.066428214
220	0x3e568938	0.20950782
221	0xbcb81b17	-0.022473855
222	0xbdbc7f4b	-0.09203967
223	0xbe8c058a	-0.27347976
224	0xbd695d4e	-0.056973748
225	0xbc12d3f9	-0.008961671
226	0xbd5609c6	-0.052255414
227	0xbc85609c	-0.016281419
228	0xbd2100d8	-0.039307445
229	0xbce47997	-0.02789001
230	0x3d591cf1	0.053006116
231	0x3d945bcd	0.07244072
232	0x3e273ce0	0.16331816
233	0x3dd925a2	0.10602881
234	0xbd91f476	-0.07126705
235	0x3e822b23	0.25423536
236	0xbd141732	-0.036154933
237	0x3b52a70c	0.0032143025
238	0x3da0a722	0.07844378
239	0x3d80c36b	0.06287273
240	0xbdfaf7a6	-0.122542664
241	0xbf41d3c6	-0.75713766
242	0xbe6e938f	-0.23298477
243	0x3e177bea	0.14793363
244	0xbcc118f2	-0.023571465
245	0x3e643f91	0.22289874
246	0x3df682ce	0.12036668
247	0x00f8a007	2.283261e-38
248	0xbd009e87	-0.031401183
249	0xbe1485a5	-0.14504106
250	0xbd1e7d6a	-0.038693823
251	0x3b8f5991	0.004374691
252	0xbdaa9f3b	-0.08331152
253	0x3dfbbe00	0.12292099
254	0xbe16fced	-0.14744921
255	0x3d019a1c	0.03164111

decoder.0.bias f4 [16]
0	0x3b556eb2	0.00325672
1	0x3e1d7a4b	0.15378682
2	0x3e7d0177	0.2470759
3	0x3dfb036d	0.12256513
4	0xbe02b428	-0.12764037
5	0x3dd2273a	0.10261388
6	0x3d39bdd6	0.045347057
7	0x3e16880e	0.14700338
8	0x3ddb2cdd	0.10701916
9	0x3da00d44	0.0781503
10	0xbd2419d4	-0.040063694
11	0xbea34cd1	-0.31894544
12	0x3dcc8823	0.099869035
13	0x3dc7fac5	0.09764627
14	0xbe4a819b	-0.19776003
15	0xb9f93bd8	-0.00047537568

decoder.2.weight f4 [16, 8, 5, 5]
0	0x3d84cbbe	0.06484173
1	0x3d98f4db	0.074685775
2	0x3c6bf4bc	0.014401611
3	0x3d203052	0.03910858
4	0x3d2d9676	0.04237982
5	0x3ddc1304	0.107458144
6	0x3e18051b	0.14845698
7	0x3db6f7ac	0.089339584
8	0x3def9d60	0.11699939
9	0x3d8a7b46	0.06761794
10	0xbc304315	-0.010758181
11	0xbcc752c6	-0.024331462
12	0xbcb9ddf4	-0.022688843
13	0xbd215637	-0.03938886
14	0xbd06673d	-0.0328133
15	0x3b9ab72c	0.004721543
16	0xbd1cd6a5	-0.03829064
17	0xbd8dc6d7	-0.06922691
18	0xbcfa6640	-0.030566335
19	0xbca0f10f	-0.019646196
20	0x3d8d1ef0	0.068906665
21	0x3da3f9c7	0.080066256
22	0x3d137cb5	0.0360076
23	0x3db7598a	0.08952625
24	0x3d6d60a1	0.05795348
25	0xbc4ef35e	-0.012631265
26	0xbd3be97f	-0.045876976
27	0xbd1130f8	-0.03544709
28	0xbc028f6a	-0.007968763
29	0xbc88b848	-0.016689435
30	0x3d190882	0.03736163
31	0x3d58478a	0.0528026
32	0x3c1d3e87	0.009597427
33	0x3cae57d6	0.021282118
34	0xbcbac851	-0.022800596
35	0x3d866c03	0.0656357
36	0x3d18f339	0.03734133
37	0x3d5e9d5a	0.05434928
38	0x3dfb90cb	0.122834764
39	0x3d773a63	0.060358416
40	0x3cfa96e2	0.030589525
41	0x3c239b42	0.009985747
42	0xbc5d18aa	-0.01349465
43	0x3c7a7043	0.015285554
44	0xbc293bb6	-0.010329178
45	0x3d1ced86	0.038312458
46	0x3d2578bf	0.040398356
47	0x3d4e737e	0.05040311
48	0x3d626469	0.05527154
49	0x3cc76635	0.024340728
50	0x3d107f4e	0.035277657
51	0x3d3591d8	0.04432854
52	0x3b738787	0.0037159638
53	0x3cb5a9ef	0.022175757
54	0x3ca210e3	0.019783443
55	0xbd884ad0	-0.06654894
56	0xbdb2512f	-0.08706891
57	0xbd842846	-0.06452994
58	0xbdb9020f	-0.09033596
59	0xbd332db0	-0.043744743
60	0x3ca73a98	0.020413682
61	0x3c5ff04b	0.01366813
62	0xbd4e4fb1	-0.05036897
63	0xbd6319c8	-0.05544451
64	0xbb75cb66	-0.0037505268
65	0x3dae72cd	0.0851799
66	0x3de128c5	0.10994104
67	0x3d627766	0.05528965
68	0x3de231bd	0.11044643
69	0x3db01dc7	0.085994296
70	0xbc9ce25a	-0.019150902
71	0xbd4914ea	-0.04909221
72	0xbcc20df0	-0.023688287
73	0xbd1a5401	-0.03767777
74	0xbd14c827	-0.036323693
75	0x3de8feb5	0.113767065
76	0x3e1ad6a6	0.15120944
77	0x3e171de3	0.14757495
78	0x3e4c85ad	0.19972868
79	0x3dbba4ba	0.091622785
80	0x3d41c041	0.04730249
81	0x3d3d9007	0.046279933
82	0x3d40a6e9	0.047034178
83	0x3d1d1fe9	0.03836051
84	0x3d0b8a19	0.034067247
85	0xbcf4df74	-0.029891707
86	0xbd608fb0	-0.05482453
87	0xbc48383e	-0.01222044
88	0xbc80a741	-0.015704753
89	0xbd007141	-0.031358007
90	0x3dd44775	0.10365192
91	0x3e1bfaf9	0.15232457
92	0x3e130e87	0.1436101
93	0x3e261d9e	0.16222236
94	0x3d8c681f	0.06855797
95	0x3cbc7e55	0.023009459
96	0x3d7c2c4c	0.061565682
97	0x3db7395f	0.089464895
98	0x3ddcc10a	0.10779007
99	0x3d662557	0.056187954
100	0x3d2a0f2f	0.041518386
101	0x3d70e8f1	0.0588159
102	0x3c012ea6	0.007884657
103	0x3cfece73	0.031104302
104	0x3d44fa14	0.048090056
105	0xbd1c0887	-0.03809407
106	0xbdb7dd48	-0.08977753
107	0xbdcd21ec	-0.10016236
108	0xbdd53e22	-0.104122415
109	0xbd47e5c9	-0.048803125
110	0xbbcdccf4	-0.006280536
111	0xbcec43d5	-0.028840939
112	0xbc601382	-0.013676526
113	0xbb0cd063	-0.0021486513
114	0x3b08319e	0.0020781527
115	0x3d186239	0.037203047
116	0x3d4f38fb	0.05059145
117	0x3c3ed936	0.011648467
118	0x3cc85e98	0.024459168
119	0x3d4562da	0.048189975
120	0xbb8d33db	-0.00430916
121	0xbd1cbd38	-0.03826639
122	0xbd81bfb7	-0.06335395
123	0xbd8be53d	-0.06830833
124	0xbcc40f56	-0.023933094
125	0x3d1db458	0.038502067
126	0x3d028a5b	0.031870227
127	0x3c92b7e0	0.017909944
128	0x3d00d36a	0.03145162
129	0x3c1d16d9	0.009587967
130	0xbc30f998	-0.010801695
131	0xbd6fbb5c	-0.05852829
132	0xbd12e7ea	-0.0358657
133	0xbb74390e	-0.0037265453
134	0x3bb2e990	0.0054599717
135	0xbd8c597c	-0.06853005
136	0xbe07a721	-0.13247348
137	0xbe174535	-0.14772494
138	0xbe2bae3b	-0.16765682
139	0xbdb2a7c1	-0.08723403
140	0x3ca0dfde	0.019637998
141	0x3b888bfe	0.004167079
142	0xbc880e3c	-0.01660835
143	0xbb1f933c	-0.0024349233
144	0xbbed8f37	-0.0072497386
145	0x3ca4e5a2	0.020129029
146	0xbbefdedc	-0.007320268
147	0xbcb836c4	-0.022487052
148	0x3c33a409	0.010964402
149	0x3c8b3158	0.016991302
150	0xbcba05bf	-0.022707818
151	0xbd212dc0	-0.03935027
152	0xbcfc0674	-0.030764796
153	0xbd26dfcd	-0.040740777
154	0xbcf86c9a	-0.030325223
155	0x3d963fa3	0.073363565
156	0x3e02d48f	0.12776397
157	0x3dda132d	0.10648189
158	0x3e301197	0.1719421
159	0x3dd409bf	0.103534214
160	0xbd0571c2	-0.03257919
161	0xbd9cb68a	-0.07652004
162	0xbda786a7	-0.0817998
163	0xbdb4c4d1	-0.08826602
164	0xbc887d6c	-0.016661368
165	0xbd507545	-0.050893087
166	0xbde72ca1	-0.11287809
167	0xbda99a1b	-0.082813464
168	0xbdef7f62	-0.11694218
169	0xbd762163	-0.060090434
170	0x3d8da776	0.06916706
171	0x3db3efc5	0.08785967
172	0x3d84ce1f	0.06484627
173	0x3dbaee56	0.0912749
174	0x3d6258a1	0.055260304
175	0xbc915a69	-0.017743306
176	0xbd42cfd3	-0.047561478
177	0xbd5c9acb	-0.05385856
178	0xbd728cc7	-0.059216287
179	0xbc95328b	-0.018212577
180	0x3d3503f1	0.044193212
181	0x3d0efed7	0.034911003
182	0x3d4540bd	0.048157442
183	0x3c49c0b7	0.012314013
184	0x3d25678e	0.04038196
185	0x3c9769a9	0.018483
186	0x3c3c9ddd	0.011512247
187	0xbb201801	-0.002442837
188	0x3d0005f4	0.031255677
189	0x3cfef042	0.031120423
190	0xbd793f07	-0.060851123
191	0xbe006388	-0.12537968
192	0xbdffa6a7	-0.12482958
193	0xbe1fd60b	-0.15608995
194	0xbd8784a0	-0.06617093
195	0x3c21aae8	0.009867407
196	0x3bce97d1	0.006304719
197	0xbb5739d8	-0.0032840874
198	0xbbd175d1	-0.0063922186
199	0xbc03c6af	-0.008042975
200	0x3c6cc6a8	0.01445166
201	0x3ccd9c90	0.025099069
202	0x3d47a65a	0.04874263
203	0x3d34d3dc	0.044147357
204	0x3c884e76	0.016638976
205	0x3d0c22d7	0.034212913
206	0x3d298329	0.04138485
207	0x3da140b8	0.07873672
208	0x3dbc7aad	0.09203086
209	0x3c9d78cc	0.01922264
210	0x3e0a74d0	0.13521123
211	0x3e78e1db	0.24304907
212	0x3e70724e	0.23481104
213	0x3e727781	0.236784
214	0x3de12a7c	0.109944314
215	0xbc5313f2	-0.012883173
216	0xbc483b7e	-0.012221215
217	0x3bab6e33	0.0052316426
218	0xbb71bc88	-0.0036886055
219	0xbc54b862	-0.012983413
220	0xbc8ebfdb	-0.017425468
221	0xbd05a936	-0.032632075
222	0xbc25ce09	-0.010119923
223	0xbc44d598	-0.012013815
224	0xbcb54154	-0.022125877
225	0xbcd05bb9	-0.025434362
226	0xbd2f1500	-0.042744637
227	0xbcdb44cc	-0.026766203
228	0xbcf59f20	-0.029983103
229	0xbd06af61	-0.032882098
230	0x3df54185	0.119753875
231	0x3df42364	0.11920813
232	0x3e31ea2f	0.1737449
233	0x3e03f3d2	0.12885979
234	0x3d832687	0.06403833
235	0x3bdfe4fa	0.006832716
236	0x3d3acc2f	0.04560488
237	0x3d1d4c00	0.038402557
238	0x3d25e8e7	0.040505316
239	0x3d1b89a0	0.037973046
240	0xbbaa9762	-0.0052060345
241	0xbd57cf86	-0.052688144
242	0xbcbc50c4	-0.02298773
243	0xbcc2f4e5	-0.023798415
244	0xbd1efbea	-0.038814463
245	0x3d42179e	0.047385804
246	0x3dd556be	0.104169354
247	0x3dfaf29f	0.122533076
248	0x3e03077e	0.12795827
249	0x3d7f6522	0.062352307
250	0x3abe30b8	0.0014510369
251	0x3c96a260	0.018387973
252	0x3bbd4545	0.00577608
253	0x3ce2d23e	0.027688142
254	0x3ce255de	0.027628835
255	0x3d1add4a	0.037808694

decoder.2.bias f4 [8]
0	0x3e02780b	0.12741105
1	0x3e32fd47	0.1747943
2	0x3da0438f	0.07825386
3	0x3e001157	0.12506615
4	0x3e48ba29	0.19602264
5	0x3d6b8154	0.057496384
6	0x3e15c96b	0.14627616
7	0x3cb7326a	0.022362906

decoder.4.weight f4 [8, 3, 2, 2]
0	0xbda727b2	-0.08161868
1	0xbda9def5	-0.08294479
2	0xbd4e4740	-0.050360918
3	0xbd51e5eb	-0.051244657
4	0x3e65d3c3	0.22444062
5	0x3e64e71a	0.22353783
6	0x3f06330d	0.5242165
7	0x3f0589ca	0.52163374
8	0xbd0068f5	-0.031350095
9	0xbd0aec9b	-0.03391705
10	0x3f175432	0.59112847
11	0x3f16966d	0.5882328
12	0xbe4c7701	-0.19967271
13	0xbe4deaa8	-0.20109046
14	0x3ed31964	0.4123031
15	0x3ed296dc	0.41130722
16	0xbc62d2f3	-0.0138442395
17	0xbc80cd03	-0.015722757
18	0xbe3a9d49	-0.18224062
19	0xbe3c3bc0	-0.18382168
20	0x3ef410a3	0.47668943
21	0x3ef112b9	0.47084597
22	0x3e43c968	0.19119799
23	0x3e3ed673	0.18636493
24	0x3d225b9e	0.039638154
25	0x3d23c5ed	0.03998368
26	0xbd830237	-0.06396907
27	0xbd82b406	-0.06381993
28	0x3f5d6a40	0.8649025
29	0x3f5d1462	0.86359227
30	0xbe8cf45e	-0.27530187
31	0xbe8cdc81	-0.2751198
32	0x3ea240e9	0.31690148
33	0x3ea2815a	0.31739312
34	0xbe885125	-0.26624408
35	0xbe882aa3	-0.2659503
36	0x3e166b25	0.1468931
37	0x3e1783a0	0.14796305
38	0xbe51c50a	-0.2048532
39	0xbe510b44	-0.20414454
40	0xbe783918	-0.2424053
41	0xbe76b632	-0.2409294
42	0xbe7bb594	-0.24580985
43	0xbe79d2b3	-0.24396782
44	0x3eebec3c	0.4607867
45	0x3eed3475	0.46329084
46	0x3ed4f3d4	0.41592276
47	0x3ed60218	0.41798472
48	0x3e42e61e	0.19033095
49	0x3e444e89	0.19170584
50	0x3e0c58ec	0.13705796
51	0x3e0d2b62	0.1378608
52	0xbe2ef25b	-0.17084639
53	0xbe2da8cc	-0.16958922
54	0x3f08a1e0	0.53372
55	0x3f08f5c4	0.5350001
56	0x3ec5f174	0.38660777
57	0x3ec70d4b	0.3887733
58	0xbecf8e5e	-0.40538305
59	0xbecdc6bc	-0.40190685
60	0x3f1d7cec	0.6151874
61	0x3f1c25ca	0.6099516
62	0xbe13054b	-0.14357488
63	0xbe179c93	-0.14805822
64	0xbcc54501	-0.024080755
65	0xbcdab419	-0.026697205
66	0x3be929d0	0.00711558
67	0x3aacadd6	0.0013174366
68	0x39cf2818	0.0003951199
69	0xbc33e861	-0.010980696
70	0x3e87f810	0.26556444
71	0x3e83a570	0.25712156
72	0x3eae9861	0.3410063
73	0x3eaf88c9	0.34284046
74	0x3e8d17e1	0.2755728
75	0x3e8e212d	0.27759686
76	0x3e06866b	0.13137214
77	0x3e082b35	0.13297732
78	0xbe094c0e	-0.13407919
79	0xbe05d747	-0.13070403
80	0xbee09d7b	-0.43870148
81	0xbedd1abc	-0.4318446
82	0x3e59ad43	0.212575
83	0x3e5ebb5c	0.2175116
84	0xbe459e16	-0.19298586
85	0xbe4627ef	-0.19351171
86	0x3f142a29	0.5787683
87	0x3f137343	0.5759775
88	0x3ce6e947	0.028187407
89	0x3cdefad4	0.027219214
90	0xbc1fdada	-0.009756768
91	0xbc3d9cbb	-0.011573012
92	0xbe8b9285	-0.27260223
93	0xbe8d2b4d	-0.27572098
94	0xbc8c3054	-0.017112888
95	0xbca21121	-0.019783558

decoder.4.bias f4 [3]
0	0xbd3cb8ec	-0.046074793
1	0x3e65af72	0.22430208
2	0x3d519c2a	0.05117432
